small-model.onnx (onnx, 525646 bytes, 2 tensors)

user_embeddings.weight f4 [943, 50]
000000 aa 7d 56 3e 57 a0 b7 3e 57 85 09 be 52 47 8a 3d
       0.20946375 0.35864517 -0.13429771 0.067518845
000010 78 21 57 3e 1e d3 99 be 00 c9 2f 3e 3f 51 2e 3d
       0.21008861 -0.30043882 0.17166519 0.04255795
000020 4e 99 c0 3e 88 8f 9a 3e 75 2b 32 3e 39 ec 25 3f
       0.37616962 0.3018763 0.1739939 0.6481357
000030 1c ff 9a bd 0f 55 70 3e a3 29 6e bd a6 3d d2 3d
       -0.075681895 0.23469947 -0.058145177 0.10265665
000040 2f 3b a0 be 0f 51 97 3e 07 00 dc 3e 4c 50 d4 3d
       -0.31295153 0.2955403 0.4296877 0.10366878
000050 62 e5 8b 3d 4c 8b 0f 3f 88 2e 05 bf 2a b2 88 be
       0.06830861 0.56071925 -0.52024126 -0.26698428
000060 9c d3 9a be 2b 9f bc be 39 bf 38 3e 9d 87 05 bf
       -0.3023957 -0.36840186 0.18041696 -0.52160054
000070 92 de fe be ff cf 6d bf 62 21 c3 3e 9f 04 18 3e
       -0.49779183 -0.928955 0.38111407 0.14845513
000080 56 b9 4f be 42 20 0b bf a7 1e 60 3f ca 94 a2 be
       -0.20285544 -0.54346097 0.8754677 -0.31754142
000090 68 c5 d7 3e 8f f5 92 be 94 57 58 be 5d 2a 81 3f
       0.42142797 -0.2870297 -0.21127158 1.0091053
0000a0 81 40 9e bd fb f8 be be 55 1c 13 3f 28 c9 8d 3c
       -0.07727147 -0.37299332 0.57465106 0.017307833
0000b0 90 68 2b 3f a9 b9 a6 3e 11 98 af 3d fe be 36 3f
       0.66956425 0.32563522 0.08573926 0.7138518
0000c0 86 56 f3 be 98 40 38 3f dc 87 47 be 77 81 a0 be
       -0.4752695 0.7197356 -0.1948542 -0.31348774
0000d0 f1 75 28 3f b8 8a 12 3e 50 9b 08 c0 a1 a0 d6 bd
       0.65804964 0.1431073 -2.1344795 -0.10479856
0000e0 1d fa 12 3f 55 dc 15 3f e3 77 f1 3e 0e c8 56 3f
       0.5741289 0.58539325 0.4716178 0.8389901
0000f0 e5 29 dd be 61 c6 53 3e 73 3c c7 3e 36 b2 e7 3e
       -0.43196025 0.20681144 0.38913307 0.45253152
000100 1e 76 f0 be 18 83 a2 3d b9 9b 9b 3f 8f eb 41 bf
       -0.46965116 0.079351604 1.2156898 -0.7575006
000110 10 20 5d be 7a e0 b4 3f 8f 5e b4 3e 63 6e 21 40
       -0.21594262 1.4131005 0.35228392 2.5223625
000120 7b d7 98 bf c0 b6 ee 3d 25 fc b0 bf f8 7e 32 3f
       -1.194076 0.116559505 -1.3826948 0.6972499
000130 de 7f ca bf 6c 37 25 bf 9d 37 3c 3e 39 b3 56 be
       -1.5820272 -0.6453769 0.1838059 -0.20966806
000140 12 8a 84 3f f5 26 82 bf 7b 26 34 be 73 de 9e 3e
       1.0354636 -1.0168139 -0.17592804 0.3102909
000150 0f f0 3d 3f 2c 0c 96 3f 0e 2e 19 3f 59 b4 f9 be
       0.74194425 1.1722465 0.598359 -0.48770407
000160 d2 45 be 3e 04 58 32 bf 0e a0 51 bf 2c 23 f3 be
       0.37162644 -0.6966555 -0.8188485 -0.47487772
000170 9f 09 d0 3e 48 69 91 3f f1 b2 39 bf 19 3b a4 3f
       0.4063234 1.1360254 -0.7253867 1.2830535
000180 a0 13 06 bf 5b b7 58 bf 0b 5a e0 be 1e c8 36 3f
       -0.52373695 -0.8465478 -0.43818697 0.71399105
000190 c2 e4 59 3d 6e 94 88 3e 05 a0 fe 3d 3a 86 2f 3f
       0.053196676 0.26675743 0.12432865 0.6856419
0001a0 1e 78 85 3f ba 46 89 3e 65 4b 08 3f 88 74 2d 3e
       1.0427282 0.26811773 0.5324004 0.16938984
0001b0 bf fe 39 bf 62 12 70 bb 53 1e c2 bf 2b 9a 83 3f
       -0.72654337 -0.003663205 -1.5165504 1.0281423
0001c0 93 cf af bf 60 ff ec be d6 4c 8f 3e fb a6 91 3e
       -1.3735222 -0.46288586 0.2798831 0.28447708
0001d0 17 06 d8 be 6e 2a e4 3f de e7 8c 3e 7b 9f 50 be
       -0.42192146 1.7825449 0.2752065 -0.20373337
0001e0 3f 5e bf bf 1a ba 01 be 72 52 9b 3d d4 10 2b 3f
       -1.4950637 -0.12668648 0.075840846 0.6682255
0001f0 8f c1 49 3f e2 07 4d 3f ac 67 88 bf f8 14 a1 3f
       0.7881097 0.80090153 -1.0656638 1.2584524
000200 57 96 0a bf 51 61 7e be 8c fc d1 3f fd 7c 1d 3e
       -0.5413565 -0.24841811 1.6405196 0.1537971
000210 a8 ab c3 be 77 0a df be 85 d6 a7 3f 2f 90 f5 3e
       -0.382169 -0.43562672 1.3112341 0.47961566
000220 ae af a2 3f dd 62 7d 3f 3e 68 d3 be 6a f4 56 3f
       1.2709863 0.9897898 -0.41290468 0.83966696
000230 36 fb 7e be ec 61 8f 3f b2 5e 0f 3c af ff 05 bf
       -0.24900517 1.1201758 0.008750604 -0.5234327
000240 fa 06 9a bf 58 79 85 3f f9 ed 9a 3f 70 87 0b bf
       -1.2033379 1.0427656 1.2103873 -0.54503536
000250 9b 8c ad 3e b7 8e d3 bf 93 e9 07 bf 61 3e 9a 3e
       0.33896336 -1.6527928 -0.5309078 0.30125716
000260 83 5e 6e be 1c 35 ea 3f 3a 84 3b 3f da d5 ca 3e
       -0.23278241 1.8297458 0.73248637 0.3961628
000270 d4 88 ef bf 5d 2b 6d 3e 1b fe 56 c0 8c c9 57 3f
       -1.8713632 0.23161073 -3.3592594 0.8429191
000280 17 e9 87 bf bc 05 e4 3e c6 b1 1c bf af 2c aa bf
       -1.0618008 0.44535625 -0.6120876 -1.3294886
000290 67 44 b2 3f c3 24 cb bf 62 9a dd bf c2 b5 98 bf
       1.3927125 -1.5870594 -1.7312739 -1.1930468
0002a0 59 9d f6 bf d4 a9 b1 3e 02 7d 68 c0 07 97 c6 be
       -1.9266769 0.3469988 -3.6326299 -0.387871
0002b0 08 79 6b be 6c 72 4a 3f 4d 3e bd bf 5e 63 3b bc
       -0.22995389 0.79080844 -1.4784638 -0.011437265
0002c0 9d 8d 68 3f 59 fb 3a be a0 37 47 be bb 23 9f 3f
       0.90841085 -0.18259944 -0.19454813 1.2432779
0002d0 0f 25 38 bf fd 2d 07 c0 f5 c2 35 bf c2 26 2b be
       -0.71931547 -2.112182 -0.71000606 -0.16714004
0002e0 d1 63 c6 3f 9b fb 7f 3f 64 c4 61 3f 55 1a 17 3d
       1.5499212 0.99993294 0.88190293 0.036890347
0002f0 03 7c bd bf c9 44 cc 3f 77 fc 82 3f 06 0d fc bf
       -1.480347 1.5958492 1.0233296 -1.9691474
000300 bb f7 51 bf f7 b7 96 bf 36 9b d6 3d 50 25 a5 bf
       -0.8201863 -1.1774892 0.10478823 -1.2902012
000310 62 01 aa 3e b1 a9 1e bf f2 59 fd 3e dd 86 f3 3f
       0.3320418 -0.6197768 0.49482685 1.9025532
000320 65 97 7c 3d 8f 7f 44 3e 29 1b bb be 91 ef bf bf
       0.06166782 0.19189285 -0.3654416 -1.4994985
000330 06 82 eb bc a0 d1 3d bf 05 8d 92 3e 61 03 9e be
       -0.028748523 -0.7414799 0.28623214 -0.30861953
000340 49 be 07 be dd f8 f4 3e 41 44 e2 3d 7b de 88 3c
       -0.13256182 0.47846118 0.11048175 0.01670765
000350 c9 54 6f 3e fb 64 8a 3e 40 a3 86 3e db 59 41 3e
       0.23372187 0.27030167 0.26296425 0.18881933
000360 74 3a fb 3e a5 7b 79 3e 7e b7 24 3f d6 8b ed be
       0.49068034 0.24363573 0.64342487 -0.4639575
000370 82 7d e5 bd a0 56 43 3e 29 e7 60 bf 83 7c 01 be
       -0.11205579 0.19076014 -0.8785272 -0.12645154
000380 56 11 19 bf e5 e3 e2 3c 36 67 e2 3e 11 a5 33 bf
       -0.5979208 0.02769656 0.4421937 -0.70173746
000390 47 5c 32 bf a4 aa c7 bf 07 37 e4 3e 77 2f 63 3e
       -0.69672054 -1.559895 0.44573233 0.22186075
0003a0 b3 fa d6 3e df 11 eb bd d7 90 cd 3e 6b 77 88 3e
       0.41988143 -0.11478018 0.40149567 0.2665361
0003b0 46 dc c1 3e 2f e7 04 3f 45 73 aa 3e 60 b9 37 3e
       0.37863368 0.5191526 0.3329107 0.17941809
0003c0 8a 0e 6c be a6 07 f3 3d eb 1a ea bd cf 6d a2 be
       -0.23052421 0.11866693 -0.114309154 -0.31724402
0003d0 3e ed 3f 3e 3d 33 3a 3f 1e d5 5d 3e 8e 00 38 3f
       0.18742844 0.72734433 0.21663329 0.71875846
0003e0 16 54 79 be d2 a6 b9 3e 56 b4 c9 bc 6e 55 d6 3b
       -0.24348482 0.36260086 -0.024622124 0.0065409457
0003f0 66 de 31 3e 44 04 0d 3c b9 8d 8c 3e a9 f9 15 bd
       0.17369995 0.008606974 0.27451876 -0.036615048

movie_embeddings.weight f4 [1682, 50]
000000 1e e3 65 be 93 8d 55 3e a3 c6 e9 bd 25 21 6a 3e
       -0.2244992 0.20854788 -0.1141484 0.22864206
000010 6d f1 ec 3c e7 3f 3c bc 63 5e ee bd 1b 8b 87 be
       0.028923715 -0.011489845 -0.116390966 -0.26473317
000020 bc 83 01 3f 21 fa 09 3e bb 73 bd 3e 48 31 c3 be
       0.50591636 0.13474323 0.37002358 -0.38123536
000030 ee 9f 7b bc e6 00 8c 3e f4 33 bb be 49 28 df 3e
       -0.015357954 0.27344435 -0.36563075 0.43585423
000040 2a f5 19 bf 1e 06 44 be 1d a0 ca 3e 3e ca 2c 3e
       -0.60139716 -0.19142959 0.39575282 0.16874024
000050 ee 32 f5 be 93 a1 bf 3e 35 3c 88 be 15 ad 07 3d
       -0.4789042 0.3742796 -0.26608434 0.03312405
000060 5b ef c6 be 70 e6 a0 3e 99 3c 7f 3e 91 8d af be
       -0.3885449 0.3142581 0.2492546 -0.34287694
000070 db 25 3c bf 46 e3 4e bf 71 8f e0 3e 08 b0 0e be
       -0.7349526 -0.8081554 0.43859437 -0.13934338
000080 9b 4b 35 be 14 cc 95 be 88 fa e0 3e c7 32 12 be
       -0.17704622 -0.29257262 0.4394114 -0.14277183
000090 33 43 fc 3e e0 f1 bc 3d 24 48 94 be 79 b2 ba 3e
       0.4927002 0.092258215 -0.2896129 0.3646429
0000a0 8a 87 26 be 29 06 2f 3e 7e f9 57 be f8 59 c0 3d
       -0.16262642 0.17092194 -0.21091267 0.0939216
0000b0 43 7e 55 be 2b c1 25 3f 54 a0 2d bd a1 cd 95 3e
       -0.20848946 0.64747876 -0.04238923 0.29258445
0000c0 b5 58 8f be ed 05 4a 3f e1 d7 8d bf a3 a3 b3 be
       -0.27997366 0.7891529 -1.1081506 -0.35085782
0000d0 9a 4d 6b bf 00 3a cb 3e 34 e4 42 3e ce 5b 07 be
       -0.91915286 0.39692688 0.19032365 -0.13218614
0000e0 92 2d e6 be e9 3e 6c 3e b5 74 16 be 61 67 90 be
       -0.44956642 0.23070873 -0.14692958 -0.28203872
0000f0 0a e0 2b 3f 27 82 b5 3f 0f 29 9e bf b2 3f ab 3e
       0.6713873 1.4180344 -1.235628 0.33447033
000100 92 65 e6 3e 2d aa a3 3f 84 2b 84 3e 1b ad a6 3f
       0.44999367 1.2786309 0.2581445 1.3021578
000110 e4 fc 3a bf 3e 7f 1a be 33 78 93 be ea bf 03 3f
       -0.7304213 -0.15087602 -0.28802642 0.5146471
000120 25 64 e8 be d2 ff f5 bd 2c 23 e9 be d2 f3 58 be
       -0.45388904 -0.120116845 -0.45534647 -0.2118676
000130 77 60 a4 3f 51 60 70 3e 0a 3e c9 3c b6 a9 1c be
       1.2841939 0.23474242 0.024565715 -0.15299115
000140 0c 56 90 bc f2 8d 64 bf ec f6 99 bf 46 0f 13 bf
       -0.017619155 -0.8927909 -1.202848 -0.5744518
000150 d4 70 96 3f 9b be a3 3e a0 a9 8e be 9b e8 15 bf
       1.1753182 0.31981358 -0.2786379 -0.5855805
000160 da b7 a6 bf a3 dd 18 bf 76 a3 53 bf e2 35 98 bf
       -1.3024857 -0.5971319 -0.82671297 -1.1891444
000170 c5 a5 92 bf 78 43 33 bf 72 c6 1e 40 85 8b 05 be
       -1.1456839 -0.70024824 2.4808621 -0.13041504
000180 89 fb 3f 3e 16 6c 49 bf a4 1c 05 3f ed 93 ba 3f
       0.18748297 -0.7868055 0.5199683 1.4576393
000190 33 42 aa be ef 7e 17 be af 69 98 3f 49 97 70 3f
       -0.3325363 -0.14794515 1.1907252 0.9398084
0001a0 31 bc 5c 3f fe dd 2a bd 9a e0 22 be 9f 9c 04 bf
       0.8622466 -0.041715614 -0.15905991 -0.51801485
0001b0 82 c2 70 3e 8f 30 0e c0 f6 5c dc bf 66 a1 82 3c
       0.23511699 -2.2217138 -1.721587 0.015946101
0001c0 8a 70 f8 3e 63 04 88 3f eb c2 91 3f a5 e3 83 3f
       0.4852336 1.0626339 1.1387609 1.0303847
0001d0 0e e9 77 bf 0e b3 5e bf 70 1b a9 3f 6b 70 04 3f
       -0.9683999 -0.86991966 1.3211498 0.51734036
0001e0 f4 26 af bf 26 1b 30 3f 33 12 a2 be 3c 39 86 3f
       -1.3683763 0.68791425 -0.3165451 1.0486217
0001f0 8d 14 37 bd ae 64 86 bf 07 90 7a be 0b d8 8a bd
       -0.044697333 -1.0499475 -0.24469005 -0.06779488
000200 45 bc 0a 3d cc a3 16 3e 1c 0b 62 3f 83 e7 c9 be
       0.033870954 0.14710921 0.882982 -0.39434442
000210 43 09 cd bd 0b 14 97 3e bc 82 3a bf cd 9d e0 be
       -0.10011532 0.2950748 -0.72855735 -0.43870392
000220 c0 ab d1 3f 1c db 4a bd 41 d8 44 bf fb e9 06 3d
       1.6380539 -0.049525365 -0.7689248 0.032937985
000230 b5 bd 99 3e e4 a5 9d 3f 9f df 41 3f d6 79 28 3f
       0.30027547 1.2316251 0.75731844 0.65810907
000240 6d a4 09 40 81 82 45 3f 55 d5 60 bf 8e 1f f8 3f
       2.1506608 0.7715226 -0.8782552 1.938463
000250 78 cb e6 be 24 df ad 3e 28 06 50 bf 86 5c b5 3d
       -0.4507711 0.33959305 -0.81259394 0.08855538
000260 09 17 54 be 46 0b 7b bf ce a9 38 3f a7 93 0a 3f
       -0.20711912 -0.98064077 0.721341 0.5413155
000270 45 5e af 3f b8 9b 94 be ab d2 89 3f a6 9d 79 be
       1.3700644 -0.29025054 1.0767416 -0.24376544
000280 be 04 02 3f 5b b2 81 bf 85 57 d1 bc 65 0f 05 be
       0.50788486 -1.0132555 -0.025554428 -0.12994154
000290 7b ed c0 be 86 74 53 be 15 22 2d 3e 22 21 81 3e
       -0.37681183 -0.20649919 0.16907533 0.2522059
0002a0 10 8b 2a 3e 52 f8 a7 bd c6 e0 11 3e ee 66 0c 3e
       0.1665461 -0.0820166 0.142459 0.1371114
0002b0 f7 01 da 3d bb f5 3a bf ed 67 c3 be 9d 63 e6 3e
       0.10644906 -0.73031205 -0.38165227 0.44997874
0002c0 90 dd a9 bd e6 13 9b be 1a b9 2f 3c a0 10 8f bf
       -0.08294213 -0.3028862 0.010725284 -1.1176949
0002d0 67 3f 11 be e8 25 94 3d 47 94 12 bf ca 30 b1 be
       -0.14184342 0.072337925 -0.57257503 -0.34607536
0002e0 89 15 e8 3e f5 c4 5c 3d 4b d1 39 3f c9 d9 87 3d
       0.4532893 0.05389877 0.7258498 0.06633336
0002f0 13 fa 3f be 08 d7 de 3e fa d6 16 bf 0a c4 93 be
       -0.1874774 0.4352343 -0.5892178 -0.28860503
000300 d3 b6 d8 be 63 0c 03 3f ec ed 6b 3d a1 48 67 be
       -0.42326984 0.51190776 0.057599947 -0.225863
000310 53 3b 46 bf a0 71 0d bd 35 52 fd ba dc f5 99 3f
       -0.7743427 -0.03453219 -0.0019326868 1.2028155
000320 3f db 96 3e 22 68 ed be ca ec 82 bd 68 35 b3 bf
       0.29464146 -0.4636851 -0.0639282 -1.4000673
000330 c4 13 70 3f f1 c6 63 3e 90 3c a3 3f 16 9b 6e bf
       0.9378016 0.22243859 1.2752857 -0.9320539
000340 e1 ba 8f bf ba 3e 4c 3f 4f 24 90 3f 44 86 ff 3e
       -1.1228906 0.79783213 1.126108 0.49907124
000350 0e a2 33 be 02 3d 9e bf cb 05 e0 3e e8 89 d8 3f
       -0.17542288 -1.2362368 0.4375442 1.6917086
000360 b2 04 51 3f c3 7b b3 be fc 96 26 3f d3 26 9c be
       0.8164779 -0.3505536 0.65074134 -0.3049837
000370 cd 69 8f be c8 ce 82 3f f7 8a 01 bf de 2d b7 bc
       -0.28010407 1.0219355 -0.5060267 -0.022360738
000380 94 e8 9b be ab 0b 87 3f 03 49 4e 3e 03 03 9b 3f
       -0.3045088 1.0550436 0.2014504 1.2110294
000390 dc f1 ec 3d 85 40 b9 bf cc 90 9a 3f ec 6b 08 3f
       0.115695685 -1.4472815 1.2075438 0.53289676
0003a0 b8 46 8d 3d 43 eb 49 3f ef 21 be 3f 8c 88 89 3f
       0.06898254 0.78874606 1.4854106 1.0744796
0003b0 f2 d4 63 3f 6c c5 8a bf e6 a7 2c 3d 79 6c a2 be
       0.88996804 -1.0841498 0.042152308 -0.31723383
0003c0 79 44 1c bf ca 50 63 3f ee e8 b4 3e 50 6d a1 bf
       -0.6104198 0.8879515 0.3533396 -1.2611485
0003d0 e1 1c d4 b7 8b 88 10 3f 81 3a 90 3f 02 35 ea be
       -2.5285817e-05 0.5645835 1.1267854 -0.45743567
0003e0 f6 bf fa 3e ce 5f 95 3f ab f3 ae 3e 89 69 81 3f
       0.4897458 1.1669862 0.3417028 1.0110332
0003f0 50 18 95 be c9 bb 72 bf 95 13 67 bd 28 f2 98 be
       -0.2912011 -0.9481779 -0.05641516 -0.2987225
